src/final_model.npz (npz, 188640 bytes, 5 tensors)

Wxh f8 [100, 65]
00000000: 3464 ed05 8fd1 be3f bc4f d5c0 09ae bd3f
00000010: 6d95 9380 05d0 c73f 7d02 fd1f 2b14 87bf
00000020: dce0 fe9b 17a6 9fbf bcbf 00db 4d2c 713f
00000030: b378 438b ae76 913f f38f b2b1 2b13 75bf
00000040: 7678 80ee c731 c63f 3ed2 2871 427b 8dbf
00000050: d244 0021 47f3 bdbf 675c 6eeb 2a68 a3bf
00000060: f9bb e58f de0f 6f3f bcd7 6e4c 640b 8bbf
00000070: 9739 6138 9f83 b93f f93d 2fc7 2f11 863f
00000080: f796 7535 d0f1 bb3f 9e3a fef7 30d8 8d3f
00000090: e885 8209 2cfc 693f e947 59ce 77ac 70bf
000000a0: 1cf2 1615 7520 503f 8569 961f 2e25 b6bf
000000b0: 5fdd 410b a3e5 7fbf af0e ae94 06b9 85bf
000000c0: d6af 24e0 ed45 b7bf 41ee 34ac ac33 cabf
000000d0: 56f1 4be1 d319 8cbf e49b 4423 4cdd 89bf
000000e0: 0652 9912 1023 8c3f 5816 14a7 5a88 b43f
000000f0: d358 5ad0 1242 b03f 9c52 edd9 d676 c93f
00000100: b743 c8ff 5777 7e3f 4182 87d5 81da 453f
00000110: c147 cf88 fb46 20bf 6877 be3e bbbf b03f
00000120: 6c1c 204e f4ab 71bf 9af0 451e dc4a 6c3f
00000130: 0102 b1a3 9962 c33f 497b f4fe 5654 7abf
00000140: d4e3 1863 55a1 903f cfff 58e6 bf6b 8d3f
00000150: 7f5d 6370 0af5 b53f d69c 91d7 2489 93bf
00000160: e165 ed2f 2f55 773f 6639 0892 262f cbbf
00000170: cd8e a20c b950 b4bf a44f 656e d481 c13f
00000180: cc5d 6c9f 7e0c 97bf f465 82ab b6a7 c03f
00000190: 2cf5 e47b c94e b9bf f0f0 c0b9 6e5b b1bf
000001a0: e65a a7f5 1480 463f c492 b16a 982a b9bf
000001b0: bf64 49ac dee2 79bf f05f d8ab 3934 7c3f
000001c0: b247 c8b7 e678 803f 5c89 2ab8 9e39 8c3f
000001d0: 039c 5ff3 93c7 77bf 2475 f982 d392 89bf
000001e0: fe23 8bfc 97bb bb3f 7f7d b5b2 f90a 8d3f
000001f0: fc8b a2bc 12f3 98bf 4b08 d888 a4fa 70bf
00000200: ec79 ef5e fae6 b7bf 0e69 761a 9179 97bf
00000210: 20e8 ece7 bfed c9bf 6ee8 7541 1657 bbbf
00000220: fc0d 8f87 2c86 8cbf cbf0 47f5 1b29 b8bf
00000230: b729 e365 fa14 b8bf 7caf e6f4 e3ca 82bf
00000240: da7a 11d5 9f4d 873f f6f2 335f a633 b43f
00000250: 9dbb 4f9b a405 523f b16b 6e29 7a5b 9d3f
00000260: 9dc9 a454 621f cfbf 9e08 9bb2 4324 903f
00000270: b708 4da6 6324 813f 3e22 a5a6 51d2 b03f
00000280: 92a4 fc4b e120 90bf 362f 7be0 ad6e b73f
00000290: 6b5b 8979 9341 823f 0914 80fb 1e8e 90bf
000002a0: cc18 29a2 9c1e 7bbf 6038 9118 2032 88bf
000002b0: a54c 5989 aa5d bdbf 15b3 9a23 a588 84bf
000002c0: 6849 5789 97a5 b03f 516a 7a3c 5bcc acbf
000002d0: bfea 0b6e edfe c4bf 4abb d8fa 328f b63f
000002e0: 518d 3d5a 1069 81bf 8e5b 9ed2 f472 82bf
000002f0: 8bb0 f929 5654 ccbf 0ae2 cb63 d2a9 d03f
00000300: b709 ca04 6265 a9bf 1e22 8dd7 9db1 883f
00000310: 1af2 c413 3b88 6abf 67ea 5562 7812 b53f
00000320: 06c0 cfe3 ea8a bbbf e81e 4dd3 fbe0 71bf
00000330: 594c d1e2 ada8 813f eea0 e5c5 33b6 b7bf
00000340: 19db 9ca9 3ac6 71bf 0d40 4356 9a32 d33f
00000350: ea75 e04c 3171 9cbf 5e6e 3923 66ae a53f
00000360: eaf6 56af 1044 b6bf 52a4 ae63 f8ff 6b3f
00000370: a7f1 e276 6a93 b5bf 04a0 ad10 aebf bb3f
00000380: 04f1 285b efb8 a5bf 7740 1b7a d079 c73f
00000390: dee3 e60c 0e01 843f 64ed 17be a6c6 b8bf
000003a0: 2bd3 a3d5 de95 93bf 23f5 7e6d ca09 c7bf
000003b0: db1a dc6a 362e bebf f2c4 46e5 2ab0 b73f
000003c0: cc73 bace d8a9 623f ec41 e019 7123 743f
000003d0: e500 47e9 a679 723f 5094 2d48 4437 babf
000003e0: 2450 07da 2fd7 b4bf 5778 2d37 338e bebf
000003f0: 06f7 b1dc 6820 c9bf 12ef 8325 c02d 893f
00000400: 1bf3 aabd 26c9 793f b19e e90c 2c53 a13f
00000410: a7bf 72e0 015f bb3f 3e7f f652 609d c83f
00000420: 4cf5 9db6 75fb c73f ea73 4de6 6513 8d3f
00000430: 9db8 4bbf 2a34 b7bf 361a 3193 5db0 92bf
00000440: c747 6f8d 440b 8abf 816c d314 cda3 90bf
00000450: 41d5 c4b4 2d97 343f 2085 d57d b862 95bf
00000460: ccce b8c2 e86e d3bf 13ad 4e2b b8fb c0bf
00000470: 41f9 1988 0f71 843f e1df 88f7 f86d 793f
00000480: 3f57 c712 c0d9 b9bf 84ea bc3b e6b2 743f
00000490: 1b28 383f d261 b93f 5eb1 2dd3 030a 313f
000004a0: 2008 0680 239e 7f3f 6aa7 e295 d311 84bf
000004b0: 0dfa 0d50 295a 83bf edc6 1fa8 d4fd bbbf
000004c0: 736b fc5c f502 81bf fc76 3cf7 aaad 7a3f
000004d0: f29d b589 a4f4 b7bf b544 8fe2 a68f ccbf
000004e0: 5881 751f aca6 be3f 0097 4f35 11f0 503f
000004f0: ea25 4bf7 a228 6d3f 8ab3 717b 5849 7cbf
00000500: 1dbe 12de 50c6 b73f c4fd dcc1 6583 c83f
00000510: fbb1 0088 9690 babf fba6 1d91 2461 84bf
00000520: 3979 b3e4 d86c 41bf 627e 3616 0430 6e3f
00000530: e439 fb75 0c43 83bf 50d6 d216 2db3 7b3f
00000540: 3f6f c0ca eaa4 b33f af1b 0ab5 fe59 783f
00000550: 9e7f 755b a6de 28bf 1ba5 5066 3150 783f
00000560: c656 9273 7ee6 8c3f 87fd 800a 28a4 b2bf
00000570: 0725 1c27 531f 82bf 1bd5 e02c 08a2 cabf
00000580: 5944 54f1 3649 c83f f791 81bd d6bb c93f
00000590: b8e9 44ad 6140 c8bf 0d8d 90e2 ea94 a3bf
000005a0: f81b 222a ab1d bbbf 11c0 d1d5 5d6d bbbf
000005b0: 683f be28 df21 833f 5e26 c78b a23f b7bf
000005c0: 2859 16d8 d770 8b3f dffe ff96 6ca5 73bf
000005d0: 8efa 0c3c f704 5cbf 4748 82b0 989d 85bf
000005e0: eead 512a 3755 823f ed53 f80c 0b1a 743f
000005f0: 4b89 46d1 03c7 84bf ccc3 d474 d374 60bf
00000600: 3a28 d754 6057 61bf a5e0 3084 4da0 743f
00000610: 8d59 093e 4306 b4bf 34a3 1e24 0100 b73f
00000620: c956 e100 2652 bb3f 07a0 63bc 7025 babf
00000630: 03ee 7294 0899 9cbf 120f 8ed6 3a32 c43f
00000640: 91e3 27ed 3976 8dbf 18c1 b38a 2408 8ebf
00000650: d570 88a2 f08a 803f bf51 010c 9798 d43f
00000660: 14ec 6340 c734 8ebf 5162 d0af c4f7 b53f
00000670: 9bf9 cac5 cd30 bfbf a575 b7f8 ceb0 853f
00000680: bc07 c586 bbf3 a8bf 8ace 3774 9a78 bb3f
00000690: efa3 068a c3e2 613f 0845 1463 39fb b73f
000006a0: f05b d686 6d1f 973f b885 0402 71e0 80bf
000006b0: 0533 0561 b30a 9c3f 2d49 1a6d 5ca3 61bf
000006c0: d504 f34a a4ba b4bf 5b9a 73ec 131f 913f
000006d0: 598e 46e5 7240 c73f 7afe 611a 6f2a 87bf
000006e0: 373b 3659 42ff bcbf 4a0b f3cd 26bb c6bf
000006f0: 87e5 0326 aa36 903f 23a0 8db4 6dff 7a3f
00000700: 93c0 2c08 989f b73f 76ba 9c7c eaac b5bf
00000710: 22d6 044a d2a6 a7bf a82c ca5e d693 b73f
00000720: 4c36 9c43 dd10 6bbf 085a e0a4 134b 903f
00000730: 9241 bd18 2c1f a1bf bbcd 1279 b9b6 30bf
00000740: a420 827f 56d5 7cbf a638 59e8 fd47 d23f
00000750: 24e5 c599 599f 8ebf 0bbd 610a be99 b9bf
00000760: 7f3a a1a4 1b67 6bbf 9699 c25e e29d ba3f
00000770: 7e3f 7825 96a9 b5bf 81a2 e62f 166c 83bf
00000780: e0d6 607c ec5b c6bf 2b4c 4746 ae12 a7bf
00000790: 0ef6 9d42 738b bb3f 7781 39d2 9431 a13f
000007a0: 1833 8b12 a767 87bf 314c c663 e2ce bfbf
000007b0: 4fe0 330d 3c8e b6bf 13fe 2ae0 65ad ae3f
000007c0: bdd6 9d20 9f3c b2bf 1e8b d3eb 5b51 7abf
000007d0: 9196 4342 1836 923f 87fc 6c07 c6b8 48bf
000007e0: 9e70 dc72 7f3e 833f b111 9686 f27d 91bf
000007f0: e0fd 7ee4 1178 88bf fc81 823a 9a9d bebf
0.12038511175832484 0.1159368606361672 0.1860358121695457 -0.011268937028604537 -0.03090702905294128 0.004192642329186865 0.017054297685597585 -0.00514523571033364
0.17339419503781855 -0.014395255163529016 -0.11699337535562229 -0.03790411113657726 0.0037917467990875556 -0.013205321867513102 0.09966464163264842 0.010774968401078932
0.10915852837714711 0.014572508400104763 0.003172002801947061 -0.0040707282947369606 0.0009843009359961135 -0.08650482436352121 -0.0077873581795907245 -0.010606814777708832
-0.09091078493355495 -0.2047019806721995 -0.013721137345321804 -0.012629122568410929 0.013738751952737448 0.08020559863151655 0.06350820147267493 0.19893918648690068
0.007438033816030413 0.0006669172244607239 -0.0001241857575267607 0.06542558938823861 -0.004314379040812982 0.0034536647019064006 0.15144653790231646 -0.00642808897762743
0.016240438626684853 0.014365672318603999 0.08577027553416448 -0.01907785001494918 0.005696472477973087 -0.21237642412638563 -0.07935673292609664 0.13677459135453518
-0.022508600693155675 0.13011821150284641 -0.09885844492687984 -0.06780139956476083 0.0006866552678797793 -0.09830620388818107 -0.00631987554205543 0.006885743406677122
0.008043100818244973 0.013781776423745278 -0.0058055667231888845 -0.012487080034754579 0.10833120265591842 0.01418109013201163 -0.024364750636447483 -0.004145281518051001
-0.09336819474945174 -0.022924678077836318 -0.2025680429886174 -0.10679759119185103 -0.01392779148762368 -0.09437727678590872 -0.09407010066494235 -0.009176045333184162
0.011378525438144594 0.07891311477937876 0.001099978207317532 0.028669270304458375 -0.24314526684754592 0.015763337875576704 0.008370188248253958 0.06570921247942693
-0.015750427496787518 0.0915325806665209 0.00891413893365974 -0.01616714868579908 -0.006620990609525101 -0.011814356565221285 -0.11471048215143982 -0.01002625479608236
0.0650267324738586 -0.05624661553629962 -0.164029768689792 0.08812254547295342 -0.008501174692077259 -0.00900832431561385 -0.22132374810769692 0.2603651022505181
-0.04960161503278775 0.012057526722530073 -0.003238788018420158 0.08231308365604094 -0.10758846341900616 -0.004364951794577833 0.008622511372015905 -0.09262393552274137
-0.004339436674675645 0.29996355461207785 -0.027775545422732785 0.04234618358597396 -0.0869760921550228 0.0034179545741222306 -0.08428063776495397 0.10839355380232979
-0.04242656696121297 0.18340497934559938 0.009767637032256301 -0.09678117886499177 -0.019126397885844398 -0.17998628946762904 -0.11789264782792534 0.09253185365266228
0.0022782549402351245 0.004916612435423389 0.0045105476351070305 -0.10240580331954274 -0.08140849183047344 -0.11935730073079874 -0.19630156303531282 0.012294293541792043
0.006295348483658337 0.033837677551500696 0.10691844682400974 0.19230274249002294 0.187361444633931 0.014197155085350095 -0.09063975496585149 -0.018250906094431772
-0.012716804090732737 -0.01624985160456705 0.0003141867243983861 -0.020884401970197364 -0.3036443616467579 -0.13268186678519864 0.00998127111529057 0.006208393599585777
-0.10097885569061037 0.005053424214390593 0.09914888423387007 0.0002599963510679005 0.0077191721651406475 -0.009799626361502074 -0.00944931293065301 -0.10934189896195408
-0.008306424045761074 0.006513278803849106 -0.09357670175597102 -0.22313390791399504 0.11973071830789672 0.00103379898541206 0.0035594160966396686 -0.006905885346992666
0.09286981031140625 0.19150993314722886 -0.10376873798731616 -0.00995091026171079 -0.000531774430239363 0.003685005170794218 -0.009405228949074869 0.0067626725478269895
0.07673518609993567 0.005945200872367203 -0.00018974095085421983 0.005935852973416612 0.014111507322279403 -0.07281732803766348 -0.008848809844055795 -0.20806982222863088
0.18973433288241173 0.20104488614300894 -0.18946476898584108 -0.03824552550966063 -0.10592145708697831 -0.10713755102347046 0.009341948920137802 -0.09081474220797633
0.013398824960671421 -0.004796432665898214 -0.0017101683044555035 -0.010554497610687842 0.008951598147368647 0.0049076491991586315 -0.010145215820391093 -0.0020088319785362737
-0.002116859576493571 0.005035689161609157 -0.07822056068957846 0.0898438180144126 0.1067222358845711 -0.10213379477829686 -0.027927526531795987 0.157782892954963
-0.014385654973908564 -0.014663968546728287 0.008077506981003438 0.3218133561361149 -0.014749104168450024 0.0858118943437003 -0.12183843687942046 0.010591141667584856
-0.04873453159463234 0.10730901086190606 0.0021833247303288876 0.09367712658810856 0.02258082519037069 -0.008240588068079244 0.02738456992783524 -0.002153091926467307
-0.08097292737786017 0.0167201150005901 0.18165432162378428 -0.011311405174864609 -0.11326994588874305 -0.17758641296503647 0.0158335290625238 0.006591251884721347
0.09227895927029044 -0.08466973821917087 -0.0461946215968221 0.09209956945612652 -0.003303939968538205 0.015911395014052615 -0.03344095041268526 -0.0002550318541338599
-0.007039392359850325 0.28564403238568514 -0.01495237350967444 -0.10000217202626886 -0.0033450641540533894 0.10397162259559986 -0.08461893477237756 -0.009483502709217053
-0.17468029091985837 -0.04506439788715285 0.10759659172432398 0.03358140054911279 -0.011428170445833483 -0.1242505544271786 -0.08810782739954102 0.05991667138505021
-0.07123751207640346 -0.0064252463027709966 0.01778448013728579 -0.0007544485987195517 0.009396548931867973 -0.017082013573160363 -0.011947765145918277 -0.11959232262098135

Whh f8 [100, 100]
00000000: 97bd a3c9 45d1 d5bf e06f 7d5b 58c5 b43f
00000010: 1d79 1ea5 fda9 debf f68c 3711 2632 d0bf
00000020: bcbf 92a4 cbb5 d1bf c706 b64c d4d3 d0bf
00000030: b389 a104 3eba cb3f 7c08 f234 784f d3bf
00000040: 6864 7ea6 9248 c23f 08aa 1273 9a75 bcbf
00000050: e745 01df fd15 7e3f cd85 2a42 7fc1 dbbf
00000060: a8cd fa9d 82df b73f f00e a297 12d1 8bbf
00000070: 9978 3f8e 1cbc ba3f 1ae3 5a57 f008 ba3f
00000080: eb18 d5bf 89d7 9c3f 3b4f 0a5d deed 7bbf
00000090: 5587 df7b 1ae4 bcbf a1b3 bb27 7dc6 d0bf
000000a0: d18f 29fa ef7a c33f 4545 7127 593c a4bf
000000b0: 38ac 8b0b ff1d d13f 3328 b9b1 e265 b7bf
000000c0: 1185 6d72 ad75 babf 4a20 1269 40eb b7bf
000000d0: 5628 9dfc 0c3f cebf 4902 ac62 7b64 d33f
000000e0: c979 2d7c 4b8d c4bf 0897 fa86 c775 b4bf
000000f0: a5cd 1d6f c4cd d1bf 7548 a2a4 02df d03f
00000100: d1d8 6225 e4c0 c0bf 9e64 0de4 851c b2bf
00000110: 6d4e 6c85 02dd d13f ac50 ab98 187f dd3f
00000120: 23f6 b842 951e a23f 82f5 6768 aeea d03f
00000130: e69d 30ba c88f babf 8c43 643c 156c b4bf
00000140: 04f4 ce83 f786 61bf eff7 5e85 b132 c1bf
00000150: ac43 ef59 2a0c babf c3b1 f7e7 532e d23f
00000160: 4ef9 9a56 984d b9bf b5ee f6fe 9550 d1bf
00000170: eac6 d9c4 36ba 823f 8c01 04e5 8fe9 c8bf
00000180: 5a57 8cec 3ae2 b8bf f1c4 a4bb fb78 cf3f
00000190: 0b56 4b09 fc3c d63f c0d7 f363 da84 dfbf
000001a0: 49ee 6e1b 8656 d23f ada7 d163 0173 81bf
000001b0: 8c8d 2739 d8ad c2bf 409e 8107 cc1c c1bf
000001c0: 5792 413c 8987 d0bf bf20 e81f f6bd b9bf
000001d0: 65b3 1207 9dcc babf b6d7 c32a 3c10 af3f
000001e0: 7dd7 4842 ca2e d6bf 26f6 366f b5b7 64bf
000001f0: 17da 2e64 3e53 b63f aaee 3476 8b9f d1bf
00000200: dc03 23ab 745b db3f 8576 890e e5d0 bdbf
00000210: 3b54 4305 f81f a03f a7eb 5da8 27af cfbf
00000220: bf39 5e0e 1342 babf 7916 9e34 acf0 cfbf
00000230: 314e 5ed5 4b62 c03f 0fd1 7818 223f b8bf
00000240: aa49 1da3 7b78 d4bf a2a8 15e6 2cb1 bdbf
00000250: 5110 f146 8392 b73f baa8 8a1b 301e ac3f
00000260: 2555 d1b2 c842 c43f 5f7c 381a f920 d23f
00000270: 2594 e034 f09e b23f 0950 3bdd f51b d9bf
00000280: 13f8 9da4 aac0 d33f bf55 3b81 3ca2 cebf
00000290: 1ee0 803d 6d49 d0bf fbe4 7da3 8d90 d33f
000002a0: 2794 a442 c53f 93bf 7631 41ce 163b b3bf
000002b0: 3c41 ea32 8063 c53f 1358 2bc3 6aa9 d13f
000002c0: 396b d03b 48fd d13f 48dc 395a ef4c d23f
000002d0: 79fc 698b e73f d1bf 1515 44c7 eb9d b53f
000002e0: 4e8c a160 dfd4 b33f b693 55f4 6626 a1bf
000002f0: ef83 3697 238b b23f 7880 3f64 ed5f c33f
00000300: 83d1 fbe9 73a9 d23f 6f5d fe18 fb39 d33f
00000310: 6a7a 550d be9f a2bf 10b1 1c0a a974 d0bf
00000320: a371 823f a5f2 bb3f 6075 c7cc ed4e cd3f
00000330: c4ee 5695 3960 b9bf f11a b823 3fcf d6bf
00000340: 9cc8 9797 03f5 bd3f cb0c 4c7c 5369 c2bf
00000350: 5e29 b4fe 1210 c13f 2980 adf6 1c40 83bf
00000360: 9d64 22da f854 c8bf 7e80 a15d 9e24 c8bf
00000370: fc4f 3a41 cfc6 c0bf 8757 dfd6 92d0 d8bf
00000380: dde7 aaa6 c666 adbf 3740 38d9 b08c d13f
00000390: 2874 fae2 c01e cf3f 761e fed7 1658 afbf
000003a0: d64f c6ca ceb6 c43f 9684 1a17 e2f5 c23f
000003b0: d571 8ef5 1497 cb3f 3446 6f32 2e91 893f
000003c0: b2f8 7690 855a 943f b454 138f 58aa d93f
000003d0: c763 4b85 6a16 aabf ef1d a6ae eabc a7bf
000003e0: e3c6 7572 970d d4bf 4003 0800 fef4 cfbf
000003f0: 1df5 77c6 eaee dcbf 46c3 4515 6c9e d53f
00000400: e656 9701 a9eb dcbf 9135 6472 9293 b6bf
00000410: 121a 78c3 9d71 a03f 81ad 7039 5c17 d53f
00000420: c686 8aa7 8548 c6bf 9cd1 0d25 b858 bfbf
00000430: 6faa d626 fbca ba3f 99cf 866d e9be d43f
00000440: 9449 e5d8 fe6c d7bf c879 f55b bb0f c83f
00000450: 45e9 b377 8fbb a03f 99fd 28bf bbd9 cdbf
00000460: 19b9 a67b 32cc b43f 4219 9df6 6220 a7bf
00000470: f898 ca64 87ac 92bf 0a53 73f8 7d12 aebf
00000480: f203 70fc 532d c5bf 7f46 4374 d24f d9bf
00000490: 1915 40a7 2975 ab3f bb27 750d e735 c1bf
000004a0: e69e 6435 65ad ac3f cb9d d316 c570 aa3f
000004b0: de02 9bcf 73e4 c73f 360a 7712 6df6 c5bf
000004c0: 649d d590 2e3f d43f 18f6 468e 0dd0 8ebf
000004d0: a5bd d481 d251 b23f e91e adc3 8ce4 cabf
000004e0: 28d3 7cf0 9a5a debf 0da8 ec72 c2ff 8fbf
000004f0: 5f8c 8b3d edaf c1bf b26c 1124 4eee 87bf
00000500: ee85 71f3 18cd d0bf 6723 09bf a49e aabf
00000510: fd1a 283c 550d c23f e781 17e3 b815 cbbf
00000520: 8b7f 5af8 2c1d d13f 9787 1c67 04d8 c2bf
00000530: d1e1 a8b4 85c5 c13f fe59 1005 92b3 abbf
00000540: 5d7b 0039 0be1 bbbf c794 e581 453a d03f
00000550: 81b1 e4e4 8eae b8bf 83f0 c99a b073 93bf
00000560: 8322 0513 afa8 d2bf c7e8 12e1 d50c c93f
00000570: 8aa6 d337 58f4 d03f 5899 3730 07c8 c43f
00000580: 9de3 e4e7 650b b03f e39d 34b1 c688 bc3f
00000590: 9f6e b38c 61da c7bf 3594 bb2a 520b c6bf
000005a0: add0 35cf f9ce d13f 64be 5a51 74ef bcbf
000005b0: 6623 4463 aaa1 bcbf ef7e 412f da5a a13f
000005c0: 41fe c100 d935 c3bf 6ed5 eba5 51b5 d1bf
000005d0: e191 3e10 cc1e c43f b6c3 820b 6a87 c03f
000005e0: 3c0c 170f c40a 783f c8dd b6f9 3957 b93f
000005f0: ea9f ad9a 4ea9 d4bf 6a9f 34e9 bac5 53bf
00000600: d0a2 b053 f8fb 913f b93e 10b6 be37 c23f
00000610: e307 44fa efbb c5bf 9fad c65a 2e93 b13f
00000620: e0fb 5736 659d bdbf 4ac8 d5f1 6ead d23f
00000630: 6dc4 0c4c fa2c b63f 6c47 3a92 9319 b8bf
00000640: 767f 116d a639 d4bf 9703 dae3 9671 b8bf
00000650: df5c 9850 b8c7 d7bf 1330 0d4e 47c4 dabf
00000660: 5271 d743 fbed c6bf 89ee d859 5bc7 d5bf
00000670: 36d4 329a 62be 6dbf b5d8 5cc0 6dd3 c93f
00000680: aa04 edcd 054b 933f 47ed cf21 2d92 cabf
00000690: c60c 1e0b 1201 89bf ec76 dc55 e95f d3bf
000006a0: db1e bf71 bb7e 903f 6fc2 07e9 28fa b63f
000006b0: 7088 81e4 3b20 b13f 0f19 dd5e 1a18 c5bf
000006c0: e98d 724d 782a 923f 7725 175d f7e1 bfbf
000006d0: f497 3926 11ab 433f 65fc 9eec c046 c8bf
000006e0: 5dcf 005c 2b5c c53f 4c09 dcaf 6348 d23f
000006f0: 2fc2 4da5 0dc9 c93f a8fd 6252 bf34 81bf
00000700: 9b55 4dbc fcd4 afbf 657e dd56 edd0 c5bf
00000710: 20cd 696d 1cd9 b7bf c456 ba68 1a1c d83f
00000720: 0a84 9d89 fd22 d0bf 0531 60c9 98c4 a53f
00000730: 1e49 caeb d3ad a3bf 9207 d90c 5c8b 97bf
00000740: 8f72 e363 4cc3 4cbf edcb 16a7 9ad2 a6bf
00000750: a99c c406 5cc7 c53f f74e 4d44 2fe6 da3f
00000760: afbc 1468 3c54 a0bf 8f84 09e3 ba61 d93f
00000770: 43c1 533d 9c3d 98bf d3d0 2c67 d872 b1bf
00000780: 8d6b 7a30 397a a53f 14f4 8687 331a a63f
00000790: c3b3 a9cd 3ccb b8bf fd23 c1ae aad0 b93f
000007a0: e993 fc20 972d 99bf 008b 8e4f f438 dabf
000007b0: 836d 0d32 dfd5 8cbf 03e5 56e3 ca8c c5bf
000007c0: 13e5 58a5 44a4 bdbf 207d 0928 fa56 bdbf
000007d0: c9d3 6e5a 4d38 c53f 429f 7794 e49d d6bf
000007e0: 773a 13c0 29b7 c63f 9f76 40a1 a8e5 c3bf
000007f0: 73c1 7120 d3b0 b7bf b592 c0d6 03dc c4bf
-0.3408979863297303 0.0811362479557256 -0.479125415085848 -0.25306083375308164 -0.27672091552357947 -0.26292903415024366 0.216621162663683 -0.3017254368825275
0.1428397477109542 -0.11116948422810691 0.007345191654239503 -0.43368512593778236 0.09325424534727367 -0.013582368137810857 0.10443285439348172 0.10169889576617344
0.02816596253730889 -0.006818646056348683 -0.11285558246848144 -0.2621148002643228 0.1521892520423749 -0.039522920670274554 0.26745582702159565 -0.091398399724455
-0.10335811656615969 -0.09343340459065633 -0.23629915556586195 0.30300793300560663 -0.1605619770370608 -0.0799221710718393 -0.27818404055798346 0.2636114700081927
-0.13088657212728674 -0.07074772660907278 0.27911437062832684 0.46088232907392057 0.035389580149495246 0.2643238086310121 -0.10375647111560901 -0.07977421497731835
-0.0021395525240834896 -0.13435954105619838 -0.1017481298033675 0.2840776219661871 -0.0988402568282016 -0.2705435743225551 0.009144237406164508 -0.1946277492752525
-0.09720199847319347 0.2458796182850516 0.3474721995129079 -0.49248370896327387 0.28653099707637303 -0.008520136698468262 -0.14593031683680768 -0.13369131437797144
-0.2582724655569896 -0.10055483130429631 -0.10468465254480248 0.06067073843034569 -0.3466058394727652 -0.002529005397916578 0.0872076983058395 -0.27536284011487544
0.42745701515747014 -0.11646873097330442 0.0314939028191152 -0.24753280373610417 -0.1025707159117024 -0.24953224724974968 0.1279997627103611 -0.0947133359666774
-0.31985369614735737 -0.11598473183917915 0.09207935792898182 0.05491781555368065 0.15828808528264307 0.28326251564607746 0.07273770609806769 -0.392331567808697
0.3086344344700375 -0.23932606039185875 -0.2544816113108953 0.30569783178323434 -0.018797952835616052 -0.07512037787927803 0.1670990227326089 0.2759653955412215
0.28108411637520053 0.28594573794493217 -0.26952541937493596 0.08444093336955334 0.07746692761570381 -0.03349611027332548 0.07243559304926327 0.15136496920513642
0.2915925774571166 0.30041387024672067 -0.03637498772399257 -0.2571203802824735 0.10917122650648152 0.22897121905308904 -0.09912452598558291 -0.35639933098029447
0.11701986742972043 -0.14383929795449144 0.13330304562289091 -0.009399629858023744 -0.19009314204302977 -0.18861751148051903 -0.1310671871657404 -0.3877303217280929
-0.05742474350468261 0.2742120858465599 0.24312602122236737 -0.06121894251469666 0.16182885075670467 0.1481287586985089 0.21554815282878673 0.01248394099630721
0.019876563017299183 0.4010220906469144 -0.05095227124338169 -0.04636319524712095 -0.3133295648359377 -0.2496640682366209 -0.4520823419732823 0.3377943237056126
-0.45188355594051044 -0.08818927090415786 0.03211682330224987 0.32955079659833336 -0.1740881984779234 -0.1224474993194406 0.10465974519926545 0.3241523332210306
-0.36602755719391067 0.18798009863071585 0.032680972444682634 -0.23320719560613837 0.08124080199079166 -0.045168964962203365 -0.018236270453280107 -0.05873483331530423
-0.16544580293705696 -0.3954969535235264 0.0536282555258742 -0.13445747525321203 0.05601040150423646 0.051641615902379444 0.18665931355464854 -0.1715828266297465
0.31635631698596556 -0.015045267013984051 0.07156100911810499 -0.21009978823189293 -0.47428010449520963 -0.015624541408744386 -0.13818135743267398 -0.011684999919614778
-0.26251815580152893 -0.051991604156291164 0.1410318893178654 -0.21160040939777433 0.26740574124595956 -0.14721732172716592 0.1388404018523617 -0.05410438834967478
-0.10890264646193999 0.25355661092028153 -0.09641354644981527 -0.0189960092998125 -0.291545647215152 0.19570420732435975 0.26491361095268273 0.16235437254290264
0.06267392074086194 0.1114620382910441 -0.18635196085130176 -0.17222048842009632 0.2782578013932476 -0.11302878366654451 -0.11184182094087944 0.0338962729153972
-0.15008080040932906 -0.2766918297123401 0.15718985360321283 0.12913251459170078 0.005869642119651405 0.09898722025433593 -0.32283368211073926 -0.001206810503228762
0.01756275187304618 0.14232620134179344 -0.16979789466864678 0.06865205494130187 -0.11568291260481045 0.2918355333014274 0.08662380558668455 -0.09414026565562289
-0.31601868296819846 -0.09548323691161752 -0.3715649401724032 -0.41822989103525393 -0.1791376191384964 -0.3402927758613506 -0.0036308217837253366 0.20176479237279002
0.018840876287190035 -0.20758594656931903 -0.01220907303264197 -0.3027289713371448 0.01610844499353346 0.08975463570801322 0.06689810112723804 -0.16479806549086404
0.017740134932536043 -0.12454172156062336 0.0006002267586608921 -0.18965922883760125 0.16687528602926252 0.28566829847126907 0.2014481598994435 -0.008401388837568316
-0.062171838747114815 -0.170438449301389 -0.09315660163138206 0.3767152807935015 -0.2521356433772445 0.04251553972435044 -0.03843557599351953 -0.02299255207459045
-0.0008777735709163003 -0.04457553186093564 0.17014646845311646 0.4202993552218994 -0.03189266939659185 0.3965899674568129 -0.023672524684060347 -0.06815865057871244
0.04194811550879427 0.043168649953692434 -0.09685115834299922 0.10084025160280415 -0.024587975872368082 -0.4097262169763525 -0.014079803194980261 -0.1683591470771618
-0.1157877830200003 -0.11460841634242458 0.16578070560140493 -0.35338701723820887 0.17746469381968996 -0.15544612763999496 -0.09254188100908838 -0.16296432481717252

Why f8 [65, 100]
00000000: 6fee 7909 80ac b2bf 49df 5929 280f 80bf
00000010: 0373 5e4e 42e3 b43f fcc2 d572 4ee3 b63f
00000020: 32c9 f8b6 9aa5 bcbf 4a3a 55f5 1008 b8bf
00000030: 558b 92e7 26fa b2bf 7034 9140 32f8 b6bf
00000040: 0816 c924 e31d b8bf 1fce 4b62 742a c5bf
00000050: ab5a 9a9c 409b cbbf 675b 5d6d 9fe9 c0bf
00000060: 96e0 2308 953e ae3f 30a6 6c31 fc0a ba3f
00000070: e5a1 dbf9 eb73 95bf 8570 aaf8 c624 cc3f
00000080: 6563 5b67 ceb5 afbf 66fb f362 8332 c93f
00000090: 0448 461f c478 b3bf 3cfe 355f 2bfa af3f
000000a0: 1f5b 2db8 98b1 da3f 7ce1 7b4c abb9 b73f
000000b0: b071 3f17 2416 bf3f e8ba 7569 e5e5 a2bf
000000c0: 347b 521a 8672 bdbf 76cf 4d10 3d13 a3bf
000000d0: 80d7 1cb5 da01 ae3f a5a3 de47 b1cb b83f
000000e0: 183d 36d8 2654 b9bf 70d2 4c58 f9cd b43f
000000f0: d886 890c fca3 cebf c03e 68b4 7838 cd3f
00000100: e8a3 6e1b 4710 a7bf 327e 0d60 035b a7bf
00000110: f901 2be5 04f6 b6bf f46b 6b60 c56f bf3f
00000120: 4d4b b210 8135 b33f c610 887b 205e bebf
00000130: ef63 71a4 af6d 953f 5fff 3335 a853 d3bf
00000140: 1287 f763 78e0 a3bf 1cd6 6208 ec71 c6bf
00000150: 6b05 bdb6 6685 d13f 97b7 0e44 a479 b83f
00000160: 6445 09a8 39b5 c03f 10b8 7ef5 c97e bb3f
00000170: b736 6d09 a0a9 c43f 51b0 4dbf b3c4 b33f
00000180: 769a df82 49ef a83f e45b 76e2 c053 d73f
00000190: 677b 1b1f 1acb bbbf 0efe 9f46 b4a5 ab3f
000001a0: 25ba 343d a0dd bb3f 261c dacd 97b4 d13f
000001b0: 0b07 f39b 3c28 d43f b4d1 210a ddf1 b13f
000001c0: 922a f813 af67 e0bf dbd4 4ea1 e163 b8bf
000001d0: f5fa 7f2e 836d b1bf ff3a 912e 2ef6 b43f
000001e0: a399 3779 dbb8 bbbf fda1 62f6 6202 f0bf
000001f0: 13db f236 8154 d63f 3ae1 2f97 1ab0 b93f
00000200: fa1f 6079 18c4 bd3f 2352 357f b0c2 acbf
00000210: a8e0 30d5 1d29 c13f 4c9e 28aa 18b1 c2bf
00000220: bc7a 3cb5 7554 b3bf 4240 c140 49e0 c43f
00000230: de47 f1ed 6a5c 99bf 48ea e4ab 58b3 c4bf
00000240: 18cf 6864 f3fe c0bf cf3e 7281 db6b c03f
00000250: 1baa d65d 9ab4 9dbf ac29 9706 2f78 b5bf
00000260: c279 51a9 8bcd d23f f857 0d20 270f c13f
00000270: 5f3e 8d50 4df3 b33f eb96 acb4 679d cabf
00000280: 1896 8b42 09a8 b83f 7f30 4cbb dd01 ae3f
00000290: 0cb6 543a 8378 d9bf 4f43 56e7 d4c8 c03f
000002a0: 279b b03a f2cf b43f e5d7 3369 037a d73f
000002b0: 0927 0fbb cc57 bc3f 8dbf e829 e6f1 b83f
000002c0: 9fd7 5cb4 9e37 bcbf 52d6 6048 6146 b3bf
000002d0: b6cf 70fd 2015 b1bf d75e 1960 b767 d13f
000002e0: 1415 bd1d cfb4 823f 6e4e 31a6 7368 bcbf
000002f0: 8947 eb7b 39f1 c1bf ea81 1767 a0fd d0bf
00000300: 02b4 4daa d843 b3bf 60ee 09b6 6ae9 b93f
00000310: 2297 706c 846f c13f 49ed 49ae 28be c0bf
00000320: 439c fdc5 fdc3 aebf d62b b77a 6921 c33f
00000330: a641 c3e7 1082 a8bf b9ea 41b6 cd95 b8bf
00000340: f95a 3efc 2b72 a3bf d71e 9860 cb4a c13f
00000350: 7710 f7af 0142 cabf 5432 83a0 f400 bfbf
00000360: 2610 6760 5a9a 86bf 362a 6317 94bb 82bf
00000370: 1811 63f6 4f52 8f3f 80e7 6061 1d45 133f
00000380: e7ce 1a60 90d0 c23f 4e6e 1d8d 021d bb3f
00000390: 3010 b64b 2452 afbf ff15 f5a4 e85a af3f
000003a0: 0000 09fd eaf7 6ebe df72 b0dc 513e c63f
000003b0: fd15 56de 5a4c c1bf 7134 5283 6ff8 ccbf
000003c0: 8389 0e80 effc c53f 7a5c d0b2 4726 c3bf
000003d0: 5bc8 efb4 7689 b33f 83fb 16c6 240e cfbf
000003e0: 169a 35fa aefb 763f 40ae 513a 58db d03f
000003f0: ff69 7ff1 a7d9 a5bf 02be 1e02 a18f b53f
00000400: dad2 1850 f94f c4bf 582e d4a1 5f79 a8bf
00000410: 1eb1 50b6 19b3 a23f ea5e 61fe 1147 a03f
00000420: db20 7e42 7f59 b8bf ef84 049b 3c5b 763f
00000430: 51d2 1257 94fe a23f 024a 4467 6def b13f
00000440: 94fc 22e3 46b7 b73f 784f fd2b 9f52 ad3f
00000450: c5b5 4646 893b c6bf bd01 60c2 93c9 d6bf
00000460: 0932 932e 6331 d93f 258f 3f80 7512 d5bf
00000470: 70c2 3611 9ca6 c43f c05b c39e c0d3 48bf
00000480: 1cac 0462 b405 c3bf 10b3 7925 ad32 c6bf
00000490: ecd0 db53 bc7f d1bf c14d 37d4 fc5e bc3f
000004a0: 8eec 76b3 ce42 bbbf 65e9 50aa 04e6 c53f
000004b0: bf40 934b acd5 cd3f 8f17 6557 97b1 a7bf
000004c0: ad9f cc1b 6df6 b43f 9c17 279d f8cc c53f
000004d0: 2d08 8329 a30f c73f 895e 9b6a e7fb cdbf
000004e0: 2709 e2b2 2ba2 d1bf 8de2 5e0d 29df a33f
000004f0: 1595 8b9f 8605 c5bf ffd5 d8f8 ae1a c53f
00000500: 83ed 2b08 ee43 b6bf fadf 2977 01f2 e5bf
00000510: aaea 35c2 c319 733f db0a 0b36 fd1c a8bf
00000520: 7f56 09c1 60a6 b23f 580c 6add f6c5 c5bf
00000530: e5b6 2d07 4556 c5bf 083f ed2a d629 d2bf
00000540: f3fd 1088 1770 d4bf 176f dfab f6cd b2bf
00000550: 4945 d82c c359 b6bf 0346 c846 e797 cabf
00000560: 146a 8d7d 9b88 ac3f 8a90 124f 8346 bf3f
00000570: 1750 7162 45ec b73f 114c b94a 0ee9 a6bf
00000580: 16d0 3590 c51c 9cbf adfd 7d93 b7be a93f
00000590: 83c6 ea81 cf25 c53f 11dc 26c3 9364 bcbf
000005a0: ff9d 9e7c ceba b83f b511 c284 21e5 cebf
000005b0: 8721 5d34 0c0c d2bf 0c61 ad4d 3d30 993f
000005c0: 9ec8 37e9 6ac2 bfbf 21cf d493 d8f0 abbf
000005d0: 80e9 10ca 6491 c03f 1f01 14be 8866 c13f
000005e0: 8b53 9a3d ce7b 8e3f 1831 16e2 a506 cb3f
000005f0: 5da7 01b9 7b7a ccbf e2d1 fe64 83d2 b63f
00000600: ab46 4dcc e9b1 ce3f 866d 31d5 078e c63f
00000610: f8bf a4eb 0832 d23f 3012 6284 a8a0 c5bf
00000620: 7f97 de92 f179 c83f 6873 31f7 cc28 c93f
00000630: 3609 14de 769e bebf 8bb8 c91e ba3b 9cbf
00000640: 902f 75a0 74bd 7ebf 0281 b728 5073 8bbf
00000650: 5650 2e63 21f0 703f 5481 39d7 c81a 9d3f
00000660: 8208 3393 6d58 c63f 0c1f 37bf 21a3 953f
00000670: 614c a919 50c3 c9bf 8015 4214 b25a c8bf
00000680: bd58 3a3f a3ad 863f 5b89 05a7 df92 c1bf
00000690: 82ef a69f f002 b7bf 1ba7 ec5c b6bc b03f
000006a0: 9a25 f728 7574 b33f 0fbe 2e99 4c53 d23f
000006b0: f348 679d e4fa c8bf c208 0ec5 e892 c8bf
000006c0: 4c98 5cbb 89d2 c73f 2b52 f815 613c cf3f
000006d0: e6fe 7dd5 2f49 aabf 5342 ea99 ade8 c0bf
000006e0: 6e28 5742 df7f c93f aeed 4f59 7915 c63f
000006f0: cfc3 7f95 61da 983f a118 25b7 bdc8 a8bf
00000700: aa21 aeef 313d b23f 59af 5e4a 1389 c73f
00000710: 975a 3ddf ecdc 993f 7eb3 b499 b5a6 5a3f
00000720: 3a76 92c9 5459 b7bf 6743 8a2e eefa 8ebf
00000730: 051e 5627 ddd3 b0bf d8d9 6a04 9f50 b4bf
00000740: 99c1 6047 fb34 cbbf d8ee 5073 3018 b93f
00000750: 96fe a21a 1157 71bf 810e 4c34 e325 86bf
00000760: 0cf2 898a 5c4b c8bf a1f9 92b1 71a6 a83f
00000770: ebc5 efaf f732 c4bf ccd2 45e6 a549 d6bf
00000780: 3506 e952 7c60 e33f a480 ed97 7430 b13f
00000790: 96ce 627c 332d d23f 138f f3f0 93c0 733f
000007a0: bd6d 38b8 dcaa a7bf 1e73 e4c4 cb61 c3bf
000007b0: ce07 6a09 f9f3 b0bf ebcc 78bd f1eb cd3f
000007c0: b5d8 08ae 0f0e d5bf 0875 6eaa a6ba b83f
000007d0: 2f89 ce3e d385 c23f 246a 24ae 17b2 ab3f
000007e0: dc6d d024 52f7 86bf b2e8 2437 7bc8 cf3f
000007f0: ff4f eca7 abf5 ce3f 2ffc 50e3 3789 c6bf
-0.07294464331965299 -0.0078414094561904 0.08159269727043399 0.08940592101658845 -0.11190192191205453 -0.09387308110783824 -0.07412951615928638 -0.08972467495296299
-0.09420604370196639 -0.16535811233153283 -0.21567542692783567 -0.13212960090705936 0.05907121395461094 0.10173011976862578 -0.020950019002073623 0.219872352045858
-0.06193394672090483 0.19685404140178803 -0.07606149447954641 0.062455516216683965 0.4170896338086311 0.09267683617861694 0.12143159453939378 -0.036910218356629276
-0.11502874510413791 -0.03725615333578862 0.05860789738510075 0.09685810093527765 -0.09894030359850026 0.08126791387332744 -0.23937941181343692 0.22828587349839857
-0.04504606447091658 -0.04561625049131769 -0.08969145388528678 0.1227992401503995 0.0750351587069364 -0.11862376228242785 0.020926231777000422 -0.3019810218393015
-0.03882194729136591 -0.17535162362553158 0.27376716466468193 0.0956061044841746 0.13053055481808962 0.1074033951142328 0.16142654857906333 0.07722018642897523
0.048700616098177926 0.3644869052454267 -0.10856784114319638 0.053998597737514684 0.10885049337660087 0.2766475210450515 0.3149558566038741 0.07009679314962264
-0.5126567258860908 -0.09527406871969239 -0.06807727704288509 0.0818814147653306 -0.10828944882778173 -1.000582659189717 0.34890776029662723 0.10034338179673777
0.11627343142765759 -0.05617286255679612 0.13406727704728394 -0.1460295515873774 -0.07550750422204094 0.16309466993198113 -0.02476660802160057 -0.16172321694632985
-0.13278047945788596 0.12829154797190376 -0.029009258248757868 -0.08386510764027005 0.2937955049036668 0.1332749277596006 0.07793124405474704 -0.20792862245541896
0.09631402849807846 0.05860798751209106 -0.3979805059087489 0.13112889571905348 0.08129800732477276 0.3668221022957126 0.11071471754908314 0.09744108699010053
-0.11022369292626742 -0.07529266373679747 -0.0667286509276995 0.27195534119299 0.00913392838959707 -0.1109688072913799 -0.14017408896193853 -0.26548013751565114
-0.07525400312233901 0.10121790832811817 0.1362157372943154 -0.13080318937486826 -0.06008904497030489 0.14945715419739142 -0.047867325106952394 -0.09603582095761966
-0.03798043684144221 0.1350950452472179 -0.2051393613056722 -0.12110833090555079 -0.011036592547391488 -0.009146840060926125 0.015293717104562662 7.35091383327318e-05
0.14698986713994275 0.10591140694799003 -0.06117356704911037 0.0612404538501714 -5.768319478018438e-08 0.17377684856264516 -0.13514266830695468 -0.22633165275729852
0.17178148033879034 -0.14960571509502413 0.0763162795772429 -0.24261912987091358 0.005611117844955623 0.2633877343675728 -0.042676208715153756 0.08422285367736751
-0.15869060908303007 -0.04780100679826366 0.036522677903436426 0.03179222326497018 -0.09511561749798451 0.005458103886014628 0.03709853709134293 0.07005962153588288
0.09264033360794804 0.05727097904187323 -0.17369190150695438 -0.3560532949632281 0.3936393694719134 -0.3292516472267713 0.1613345226337688 -0.0007576647308508086
-0.14861159120604917 -0.17342151956417995 -0.2734213656360811 0.1108243959527533 -0.10648815041979473 0.17108209911550457 0.23308328333087577 -0.04627678815681612
0.0818851654881871 0.17031772302123904 0.18016471411653026 -0.23424999909797276 -0.2755231139091329 0.038811953432234515 -0.1642311362294683 0.16487681532605333
-0.08697402667524128 -0.685791714421611 0.004663242990654718 -0.04709616932588797 0.07285122597508041 -0.17010389147989957 -0.16669524050251208 -0.2838035029608226
-0.319341547849006 -0.0734552545176793 -0.08730716557353903 -0.20776072460334669 0.05572973163244313 0.12216969185334584 0.09344895985970002 -0.044746824857291874
-0.027453505446331482 0.050283180956280794 0.1652163872109221 -0.11090968622635013 0.09660044233771002 -0.24136752111747986 -0.2819853316655316 0.024598081460994556
-0.1240603274707461 -0.054571884198962424 0.12943706385142306 0.13594159394416125 0.014884577994317435 0.2111403802813434 -0.22248789342421108 0.08914967742641225
0.23980448222805725 0.17620942983453974 0.2843038846212944 -0.16896540130632465 0.19122142478334678 0.19655763692835682 -0.119605473726584 -0.027571590546749774
-0.00750489766444308 -0.013403536074236392 0.004135256213789592 0.028422487388867282 0.17457360923259918 0.021130111022812634 -0.20127297642702316 -0.19026781071822185
0.011073375098288424 -0.13729472785332572 -0.08988860986477046 0.06537952202475276 0.07599575281269325 0.28633418044316356 -0.19515664754596393 -0.19198331472222746
0.18611261032600834 0.24403012821916667 -0.05133962136369323 -0.13210077300438403 0.19921484698562913 0.1725303350539042 0.0242705581185339 -0.04840653286605457
0.071246262565302 0.18387070781079265 0.025256825566737886 0.00162666067519554 -0.09120683594888926 -0.01512704925088011 -0.06573278627740116 -0.07935518129202224
-0.21255436883212722 0.09802534880958136 -0.004233424008077377 -0.010814452203255389 -0.18979985012619272 0.048144867826965816 -0.15780540552763908 -0.34824511993001006
0.605528032239994 0.0671456213872284 0.2840088572222411 0.004822328467728248 -0.046225450027317795 -0.15142199624906366 -0.06622272949064653 0.2337629485278748
-0.32898323054849793 0.09659806881832733 0.1447090202974066 0.05409311295280286 -0.011213914631347181 0.24830570404612257 0.24187226962442307 -0.17606257056647354

bh f8 [100, 1]
00000000: 1ba1 08e2 6e66 a8bf 96f8 2cea 8503 c1bf
00000010: f476 f591 f12c a7bf a58f 9240 a7fd 91bf
00000020: e999 7299 b25f cebf 4bf2 d796 b568 a83f
00000030: d0c0 a87d 2186 9dbf 0149 2012 78d4 c43f
00000040: e5dd 2b21 b29b cb3f 39f5 923a c7f0 c93f
00000050: 29f3 76f7 e24d 78bf 7430 24f8 a5f0 a33f
00000060: e014 09f1 b127 c0bf 4730 5d8d b41a c9bf
00000070: 6f22 9f4e a63c b7bf 9dd2 0279 cd36 d03f
00000080: 00ca 580f 65a8 d0bf 5450 6b85 8142 cabf
00000090: 23e2 92a0 5269 ccbf 9453 792b b902 c1bf
000000a0: 6392 7db9 cdc2 c03f 3e64 1a9e a3eb c3bf
000000b0: b08e 3a86 7432 b83f 3dbf 080b 6bf5 c13f
000000c0: 7910 b709 17d5 b1bf 87ad 1f97 ff49 823f
000000d0: 2126 ee4f e639 8bbf f883 2c29 c634 803f
000000e0: 9679 aa74 b7cc b0bf 04cc 1e54 6660 9c3f
000000f0: 9374 b073 2fdb c03f c03b 3f03 19ee e4bf
00000100: 430b c1e3 938b d53f 0aed ffb6 ff1d bdbf
00000110: 048f 1bb5 72fa c83f 1e5a 75fc 9a44 9e3f
00000120: b8be 3a13 7e0a d93f 6b6c eb78 4ce7 993f
00000130: 73cc 43f5 d44d d33f 80a5 6396 bf6b c73f
00000140: 2f9a 4c9b f24a d1bf f28b fbd4 1ddf e4bf
00000150: 05df b3fc cc09 c3bf 9368 18d4 c495 85bf
00000160: d227 5c08 28ae 8dbf 676f 13e9 4b5c c6bf
00000170: 137e 6305 45f4 b2bf da9b c9a5 2017 abbf
00000180: ca93 11fc b18e 83bf a5c5 1ebf c556 bfbf
00000190: f2bc add4 c801 b33f 53a5 32c1 1133 b73f
000001a0: 39b4 4d77 19a2 a3bf ee9d 5e1e a581 c6bf
000001b0: 52f0 ba8c 9534 c3bf e69c 08dd 4f8a a53f
000001c0: 45bb 956c b637 c03f 86ef 5a71 2337 d13f
000001d0: 3ab5 bd38 0066 b03f e70d f42a 4c6a ccbf
000001e0: 7dd7 81e8 8a77 cd3f 875d 3c2d efdc c13f
000001f0: c54b 3485 603c bebf 4d41 b125 7914 af3f
00000200: a96e 08a4 ae71 a33f 4728 a80c d2d9 bfbf
00000210: e6bf b91b 3d64 b8bf 81f1 85d7 8397 b93f
00000220: 16ba 648f 2c98 cbbf 6ab5 b590 a068 91bf
00000230: 6a75 e32d 178d b53f d62b ccaa ecc3 a83f
00000240: 9932 64e7 55e1 c2bf c148 306c 44dc d1bf
00000250: 9281 f39b 57c3 9fbf 079e 1845 33fa 943f
00000260: 3822 13a6 a5c7 ccbf 431e 9ebe 1f55 d73f
00000270: cf01 df8f 662f c83f 5506 d484 6e12 d23f
00000280: a560 67fe 03db b33f b836 da10 e5cb b63f
00000290: c069 388f 532e b93f 6c55 b3ab 2c57 c83f
000002a0: 36ee 009c 1849 d1bf 302d ef9b ff1e d0bf
000002b0: 68ca dd94 c5b4 a7bf 13fe e601 008e 903f
000002c0: dd40 1808 c1a6 d43f 1cee c86c 7aa4 97bf
000002d0: 40b0 c81f 0083 c43f c90c 26b5 7ab6 c6bf
000002e0: c747 0d9f b5ff e33f 10e9 9860 b813 a63f
000002f0: 8e63 ab0a bdf7 693f c18a d51a b72e be3f
00000300: fa75 fd4d c6c5 c83f 9558 5a9f e0e9 b7bf
00000310: c25a b33a c89c aa3f 096e b9a2 2613 3a3f
-0.04765650281143704 -0.13292001661642833 -0.045264767710916504 -0.017569173160736935 -0.2372954606300504 0.047673868812101526 -0.02883198098624079 0.16273404011787565
0.21568895930953072 0.20266046867429013 -0.005933653439055311 0.03894537595815076 -0.12621139783201496 -0.1961274805311197 -0.09076919002030491 0.2533448869465163
-0.2602780008193406 -0.2051546002827559 -0.22196419563785338 -0.13289560911894382 0.13094493443635988 -0.15562863559606116 0.09451988484448282 0.14030206717279184
-0.06965774523911418 0.00893020324652728 -0.013294028581884611 0.007913158542182316 -0.06562372778214462 0.0277114857523877 0.13168900631800237 -0.654064661351974
0.3366441463623923 -0.11373899667517065 0.1951430687250807 0.029558583887899663 0.39126541021230876 0.025296397095058525 0.3016254801907003 0.1829757198641282
-0.2701994434923191 -0.6522359046761024 -0.1487365945720215 -0.01053956768287304 -0.014492333178640768 -0.1746916664186486 -0.0740397585063806 -0.05291082404874432
-0.009549513344788613 -0.1224177924730357 0.07424597923612788 0.09062300650352499 -0.038346095860881176 -0.17583145125284666 -0.1500422417792629 0.04207086156048394
0.12670021345135232 0.2689903838142914 0.06405640969542939 -0.22199394318896212 0.23021065094843243 0.13955487927226448 -0.11810878040368696 0.0607030733596071
0.03797670128207404 -0.12441742714887126 -0.09527952124494696 0.09996818553731225 -0.21558148385652548 -0.01700068362463495 0.08418412084889373 0.048369785165128285
-0.14750169561775264 -0.27906904759687384 -0.031018608945375066 0.020485688297553064 -0.2248427449142285 0.364570556783722 0.18894655251462075 0.2823749825621225
0.07756066285162662 0.08904868756709561 0.0983631348284808 0.19016035445990143 -0.27008643374185526 -0.25189199665028905 -0.04630105440346172 0.01616668712244802
0.32267785826208045 -0.023088372125341747 0.16024781753492512 -0.17744382710598064 0.624964533470341 0.04311920336881958 0.0031698887081401178 0.11790031819468096
0.19353560264691777 -0.09341243639423376 0.0519774028450022 0.00039786999943711203

by f8 [65, 1]
00000000: 4ee2 df63 7e05 b83f 07ca 3fb3 d06d c13f
00000010: 93df bdc0 46e0 d0bf b570 28d7 b2b9 edbf
00000020: b4e9 440f f1d0 c53f 9814 10b6 1040 edbf
00000030: b75c f33a e057 e6bf 04a1 c1d9 4754 03c0
00000040: 41b0 09d3 f9d3 ef3f 0ddb 4cf1 a00b 03c0
00000050: 004a 4615 de99 ee3f 8cee 93ca dbbf cbbf
00000060: 319e 97c0 4905 f3bf 836e 55cf 838c e43f
00000070: 832d 86d8 d2e5 d33f b21d 7c8b 4423 efbf
00000080: 5603 7056 4b5a f0bf 86e3 3643 7190 f8bf
00000090: 6e07 f6c7 c52f fabf ac81 1ddc c4b1 fdbf
000000a0: 1b2c 47d6 e02e 03c0 d2da 884e 31a2 cdbf
000000b0: 47a2 a340 ae7a e4bf df9e 4168 e479 f13f
000000c0: 5955 4bc4 452d e93f 3e22 4c69 7b85 f13f
000000d0: 75ff f613 a88f ddbf b035 ec64 de4f f2bf
000000e0: 5051 3cf9 fa85 f9bf 0c89 1f0b a384 edbf
000000f0: c1a8 5212 8c16 d1bf 51e5 f56c 07c7 cf3f
00000100: 4fcb c76f c41f dd3f b4eb 28dd ca39 03c0
00000110: 51c6 18a2 66ee d9bf cdb4 95f3 983f ebbf
00000120: 9b8e 9d13 9979 f9bf 2ad1 4fad 7d5e 03c0
00000130: 2a48 ac6a 19b1 e73f d486 03e1 b224 f9bf
00000140: 4cc5 1ebd d5ca d3bf 2113 72eb e521 d9bf
00000150: cb84 4c41 4362 f0bf 3f04 f0b3 1062 c33f
00000160: 43f4 5ea0 5541 03c0 31fb 601d 8601 d63f
00000170: e354 f5f4 4b14 e43f 7597 2942 ebfc cdbf
00000180: 46c7 4464 0af5 d63f 5d4b 744c 91c4 b73f
00000190: 75ea ae6c ecbf bf3f 5be0 1dcc c3e9 f3bf
000001a0: a089 475b 15b7 eb3f b244 d321 21e6 e7bf
000001b0: e556 cf83 1e53 d6bf 3e9f c995 1810 f7bf
000001c0: 170d e255 519c d9bf d621 72e9 c0a0 e9bf
000001d0: ab20 6bb9 661f df3f bd6f 62fc f438 d2bf
000001e0: 2984 2bfb 3cae e53f 70b9 34b9 1ec8 bcbf
000001f0: 82db 7bd0 09c3 d6bf a974 8c93 aa61 03c0
00000200: c0ab 062a 1353 c4bf
0.09383382738440924 0.1361637950172538 -0.2636887438052266 -0.9289182855896089 0.1704388927990529 -0.914070468512949 -0.698227038515049 -2.416152669164264
0.9946259614785121 -2.380678067357968 0.9562826552885895 -0.21679255858895308 -1.1887910388121663 0.6421526956068678 0.31090232033667337 -0.9730551456749963
-1.0220445038287003 -1.5352642655909405 -1.636663228128295 -1.8559006307842578 -2.397889780089384 -0.23151222548195577 -0.6399756681904102 1.092258841754237
0.7867764314529878 1.0950883973292913 -0.46189310025874103 -1.1444992010395758 -1.5952100501791229 -0.9224410264253335 -0.26700116910309296 0.24826138325060268
0.45506392398890666 -2.4032189634430896 -0.4051758368469552 -0.8515133626475745 -1.5921870008686827 -2.4211381473525266 0.7403685649353566 -1.5714596547699573
-0.30925506085175836 -0.3926939772866707 -1.0239899206865626 0.15143021379484087 -2.406901600740214 0.3438430106070199 0.6274776253073039 -0.23428097467984413
0.3587060908495129 0.09284313313064048 0.12402227071189904 -1.2445714925106788 0.8660990507890354 -0.7468419705056901 -0.3488231932836768 -1.441429696185835
-0.4001658762646953 -0.8008732375611156 0.48629158122322264 -0.2847263779346994 0.677519312445047 -0.11242858907346487 -0.3556541954016482 -2.422688629840725
-0.15878524353078483
